models/ppo_final/policy.pth (torch, 44796 bytes, 12 tensors)

log_std f4 [2]
000000 73 12 4e c0 59 88 50 c0
       -3.219876 -3.258322

mlp_extractor.policy_net.0.weight f4 [64, 10]
000000 9e 6c fe 3d 2b f2 29 be 18 f3 8d be 46 fb 31 3e
       0.12423061 -0.16596286 -0.27724528 0.1738101
000010 df b6 46 be df 8e 33 bd 5b 2c 08 be fd 08 dd 3e
       -0.19405697 -0.043837424 -0.1329817 0.4317092
000020 5f 73 03 3e b9 9e 53 bc 75 2f 6b be 04 36 0b be
       0.1283698 -0.01291626 -0.22967322 -0.13594824
000030 5b db 37 3e 4f 32 20 3e 47 11 ff bd 58 c2 65 be
       0.17954771 0.15644191 -0.12454467 -0.22437418
000040 e4 3d 03 3e 9e a6 04 be 82 7e 80 3d b1 25 60 be
       0.12816578 -0.12954184 0.062741295 -0.21889378
000050 0f 79 7d 3c f6 37 0c 3e c4 bd 32 be 5b 3a 32 3b
       0.015470757 0.13693222 -0.17455202 0.0027195427
000060 1c 8f 32 3e 54 6b 5c 3f cf d5 14 3c 78 a0 0e 3d
       0.17437404 0.8610127 0.009084179 0.034821004
000070 3e 14 86 bd c7 ac 05 bf 09 c8 cd 3d e0 f1 20 be
       -0.0654683 -0.5221676 0.10047919 -0.15717268
000080 eb 65 6b 3d 90 0f ca 3e ca 04 fc 3d 44 6b e4 bd
       0.057470243 0.39464998 0.12305601 -0.11153272
000090 0e 5a 39 be d7 b2 90 3e 70 5c 73 3d 8b 73 8a 3e
       -0.1810076 0.28261444 0.059414327 0.27041277
0000a0 5e 38 ba bd 2b 99 32 be 1e f4 9d 3d bd 08 9b be
       -0.090927824 -0.17441241 0.07712577 -0.30280104
0000b0 e3 94 7a be b3 a3 03 bf 8d 88 91 ba 61 5e 31 3e
       -0.24470858 -0.5142166 -0.0011103317 0.17321159
0000c0 48 bc 1b 3f fa fb c9 3e d5 b3 4c be 6b 8e 6c 3d
       0.6083417 0.39450055 -0.19990475 0.057753008
0000d0 bc b9 bd 3c df a8 c1 be b6 20 a8 3e 01 dc 28 be
       0.023159854 -0.3782415 0.32837456 -0.16490175
0000e0 a2 42 78 3e f2 23 74 3d f6 9c c7 bd 0c 05 96 be
       0.24244168 0.059604593 -0.09746735 -0.29300725
0000f0 41 c5 47 be 97 e6 55 be 22 d3 4f be e0 46 aa 3c
       -0.1950884 -0.20888744 -0.20295385 0.020785749
000100 60 c2 b8 3d 18 70 60 be e5 e3 ef bb af 69 c5 bc
       0.09021449 -0.2191776 -0.0073208683 -0.024098245
000110 8d 0d a7 be c6 44 20 be e2 36 dc 3d 4b a7 ea 3e
       -0.32627526 -0.15651235 0.107526556 0.4583076
000120 05 01 c6 3d 7f 75 a3 be c9 23 e0 be e5 42 0e 3e
       0.09668163 -0.3192558 -0.43777302 0.13892706
000130 a8 70 2b 3d cd a4 45 be 01 03 4a 3e e5 36 95 be
       0.041855484 -0.19301148 0.19727708 -0.29143444
000140 4b 99 25 be d8 20 f4 3c de 16 8f be 55 a6 cc 3c
       -0.16171758 0.029800817 -0.27947134 0.024981657
000150 d9 59 1c bf e8 37 18 bf fe aa 9a 3c a8 52 5c 3d
       -0.61074597 -0.59460306 0.018880364 0.053789765
000160 f5 81 c4 3e 0e 06 c0 3e 11 3f 88 3e eb be 75 3e
       0.383804 0.3750462 0.26610616 0.2399861
000170 7f 6d 98 be 89 d0 5a be 6f 18 e0 3e e5 da 12 be
       -0.2977104 -0.21368612 0.4376864 -0.14341314
000180 0f ff 1e be 2c e8 e4 3d 90 55 f8 bd 0d ac 4b 3e
       -0.15526985 0.11177096 -0.12125695 0.19889851
000190 f5 40 45 bd 47 99 bb be 98 b5 66 3e d8 7a 04 bf
       -0.04815765 -0.3664038 0.2253021 -0.51749945
0001a0 f5 f2 25 bd 2f 30 16 be 57 73 bf 3c 48 7d 66 bd
       -0.040514905 -0.14666818 0.023370428 -0.05627182
0001b0 bf e1 6e 3e c0 ba 22 bd 0c 46 2d 3e 6d 97 62 bd
       0.23328303 -0.03972888 0.16921252 -0.055320192
0001c0 41 33 97 3e d8 37 22 3d b5 64 03 bf c7 00 13 3f
       0.2953129 0.039604038 -0.5132554 0.5742306
0001d0 18 a2 17 3e 1a 43 32 be 0e 98 57 3e 7c e0 ae be
       0.14807928 -0.1740841 0.21054098 -0.34155643
0001e0 a5 1a 1e be 13 b3 7e 3e 80 a3 14 be f6 70 86 bd
       -0.15439852 0.24872999 -0.14515495 -0.06564514
0001f0 32 ec 79 bd 0c dd 42 bf 16 bc c1 be 3e 00 7e be
       -0.06101627 -0.7611854 -0.3783881 -0.2480478
000200 61 10 f9 3d b6 d7 c9 3e 25 0b 4a ba f2 a4 42 be
       0.12161327 0.39422387 -0.0007707349 -0.19008234
000210 04 ca 8b bd 1d d0 c4 3e b1 4d 3a bf 5d 06 34 3e
       -0.06825641 0.38440028 -0.727748 0.17580552
000220 4c 65 05 be 1f 65 be 3d c4 24 3b 3f eb fc ce bd
       -0.13026923 0.09296631 0.73102975 -0.10106834
000230 41 95 3d 3e 68 1f 3a 3e 56 8f e6 3d 6f 5f e1 3e
       0.18513967 0.18176043 0.11257808 0.44018123
000240 1a ee 36 be cd 6a cb 3e 3b 81 76 3c d1 fe 08 3c
       -0.17864266 0.3972992 0.015045459 0.008361534
000250 27 31 dd 3e 4a 4d bf be 44 19 ca 3d 71 df 08 be
       0.43201563 -0.37363654 0.098681 -0.13366486
000260 f0 c9 10 be ab 13 59 3e 27 27 2b 3e d3 4a c0 be
       -0.14139533 0.21198909 0.16714154 -0.37557086
000270 ea 7c cc bd 05 3e f8 3c 87 4f 79 3e a9 59 83 3d
       -0.09984763 0.03030301 0.24346744 0.06413586
000280 77 35 b3 3e 27 b9 aa be 43 86 91 bc 44 f9 9c 3e
       0.35001728 -0.33344385 -0.017764216 0.30658925
000290 e2 f4 43 3d 2c 82 aa bd ec ab d0 3c 84 31 50 be
       0.04784096 -0.083256096 0.025472604 -0.20331389
0002a0 55 66 cb 3d b1 9b ab 3e db 06 13 3d 7c 21 87 bc
       0.09931628 0.3351722 0.03589521 -0.016495459
0002b0 7f bd 3b be bf a2 8b 3e 48 b3 2d be 4f 8a 34 3e
       -0.18334006 0.27272603 -0.16962922 0.17630886
0002c0 11 6b 18 3e 23 fb 6a be b9 c7 d0 be 4c a7 37 3e
       0.14884593 -0.22947364 -0.40777376 0.17934912
0002d0 75 5b ba be ee b3 ae 3e cb c9 ab be 56 20 12 be
       -0.363979 0.3412165 -0.33552393 -0.14270148
0002e0 ac 33 10 be 44 25 8e bf c4 24 67 be 61 21 8c 3b
       -0.14082211 -1.1105123 -0.22572619 0.00427644
0002f0 5f c5 01 bd 72 8f a6 3e d2 27 4f be b3 0f 49 bd
       -0.03168237 0.32531315 -0.20230034 -0.049087238
000300 07 db b9 bd cf 46 0a bd a2 8a dd 3e f7 bf 8f 3e
       -0.09074979 -0.033758935 0.4326983 0.28076145
000310 c0 9e 00 be 24 70 74 be 92 69 06 be fa 30 e1 bd
       -0.12560558 -0.23870903 -0.1312621 -0.1099567
000320 54 51 c2 3d 32 b6 bd 3d 98 49 b0 bc 9b f3 a0 3c
       0.09488168 0.092632666 -0.021519467 0.01964741
000330 3f cd 1e bf 74 9e a6 3e 39 db 4b 3d 85 6d 20 3c
       -0.6203193 0.32542765 0.049769614 0.0097917365
000340 e5 9c cb 3e 7b d4 26 bf e9 a9 8d be 4e 98 2c 3e
       0.3976814 -0.6516797 -0.27668694 0.16854975
000350 7f cb 18 be 45 34 15 be d0 29 03 3f 41 1e be be
       -0.14921378 -0.1457072 0.51235676 -0.37132457
000360 12 0e 1b be 1d 97 76 3e 75 c0 c7 be 34 41 9d 3e
       -0.15142086 0.24081083 -0.3901402 0.3071381
000370 fd c9 ec bd 91 cc cd bc ed f3 e2 bd 2e 0f 99 be
       -0.11561964 -0.025121959 -0.110816814 -0.29894394
000380 74 ea 5a 3e a2 54 0d 3f 4a 43 5b 3e 24 8e 33 be
       0.213785 0.55207264 0.21412387 -0.17534691
000390 dc 7b 51 3e bc ad 23 bf 98 c8 a0 3d ee 72 6c be
       0.20457405 -0.6393697 0.0785076 -0.23090717
0003a0 39 ea 91 3d 05 83 42 3e 7b bd 1e bf 43 3b 1c 3f
       0.071247526 0.18995292 -0.62007874 0.61027926
0003b0 9e d3 41 3c 33 b2 f2 bd 54 f9 26 3e 3b 13 24 bf
       0.011830239 -0.11850395 0.16306049 -0.64091843
0003c0 31 82 9d be f2 83 27 3e d2 58 79 3e 6e 13 80 3e
       -0.3076339 0.16358927 0.24350289 0.25014824
0003d0 c7 12 b3 be 7e e7 8c 3b 77 d3 52 3e 6c 94 d9 3e
       -0.34975263 0.004300057 0.2058848 0.4249605
0003e0 3a 79 f3 3d 52 c4 ce be 50 50 00 3e 65 7a d0 bd
       0.118883565 -0.40384156 0.12530637 -0.10179595
0003f0 90 e3 b7 3e 85 06 06 3e d2 4a 83 be 01 81 26 bf
       0.35915804 0.13088425 -0.2564302 -0.65040594

mlp_extractor.policy_net.0.bias f4 [64]
000000 bd 8d 56 bd e4 7f f8 bb eb 19 ba 3d 93 c8 2b 3d
       -0.052381266 -0.007583605 0.09086975 0.04193933
000010 75 f2 a1 bb 2f f1 22 be 85 ce 14 3d a3 8c f8 bd
       -0.004942233 -0.15912317 0.036329765 -0.12136199
000020 89 46 2a 3d 1b 24 04 3e 45 83 19 be ca f4 21 bd
       0.041571174 0.12904398 -0.14991482 -0.03954009
000030 c1 05 54 bc e7 ac 76 3d b2 20 1f 3e 87 57 92 3a
       -0.012940825 0.060223486 0.15539816 0.0011165001
000040 70 af f3 bc 89 fc 5e 3c 52 9a 80 3d 59 2a 46 bd
       -0.029746741 0.013610014 0.06279434 -0.04838023
000050 ff 8f 93 bd 78 e5 03 be 0f 9f 3a 3c 65 da 51 3d
       -0.072051995 -0.12880504 0.011390462 0.051233668
000060 1b 2c f1 3c 9b e2 6a bd f5 3d a5 bd 81 2d f4 bd
       0.029439976 -0.057345014 -0.08068458 -0.11922742
000070 5d 99 8e bc d4 3d 4a bd e3 d2 a5 bd cb 52 5f bc
       -0.017407114 -0.04937537 -0.08096864 -0.013630579
000080 60 6b 52 bd 1a e8 a1 3d bf fd 7d 3d a4 76 ba 3b
       -0.051371932 0.07905598 0.06200957 0.0056904126
000090 24 eb ab bd f2 4d 89 bc 4c 82 93 bd a9 e7 50 3b
       -0.08394459 -0.0167608 -0.072025865 0.0031876361
0000a0 2e 34 67 bd 4d 85 1a bd 64 9e 72 3d 88 16 23 bc
       -0.056446247 -0.03772478 0.059233084 -0.009954102
0000b0 18 a7 a4 bd 73 d9 f3 3c 9f 8f 2c 3d 00 f4 fd 3d
       -0.08039683 0.029766774 0.042129155 0.12400055
0000c0 84 fd 40 bd 82 83 72 bd f4 fc 08 3e dc fd 82 3c
       -0.04711677 -0.059207447 0.13377744 0.01599019
0000d0 f3 d2 f9 bd 12 c2 96 bd fb 1c 2e bc dd cf 36 3d
       -0.121984385 -0.07361235 -0.010627027 0.044631828
0000e0 6c f1 e2 bd 17 d0 ff 3b d0 3f 42 bd cb 17 b6 3d
       -0.11081204 0.0078067887 -0.047424138 0.08891257
0000f0 5a f7 66 3c 4e d9 bb 3d 7f cf 18 3d f4 21 f5 ba
       0.014097059 0.09172307 0.03730726 -0.0018702135

mlp_extractor.policy_net.2.weight f4 [64, 64]
000000 df a1 54 3d a1 a8 11 3e 0e 19 bf bd 3b 67 8a 3b
       0.051912185 0.14224483 -0.09330951 0.004223732
000010 54 de 55 3e e7 ae 91 bd c6 38 6a 3e 82 09 43 be
       0.20885593 -0.07113438 0.2287322 -0.19046596
000020 ba c3 39 3b 5d 46 7b be a9 dc 18 be bd 0f 1c bd
       0.0028345422 -0.2453856 -0.14927925 -0.038100947
000030 42 1d 4c be b7 4f 99 3e 7d 42 75 3e cd 03 6e 3e
       -0.19933036 0.2994363 0.23951145 0.23243637
000040 1b 7b eb 3e 5f 34 e6 bc d1 16 a9 3e 46 11 05 be
       0.4599236 -0.028101144 0.3302522 -0.1299487
000050 a4 3c 97 be 07 cb 85 3d 13 f8 76 bd 9d a0 d1 bd
       -0.29538453 0.06532865 -0.060295176 -0.10235713
000060 24 48 9e 3d 55 c1 40 be 18 2e 70 be 6d 8e 00 bd
       0.077286035 -0.1882375 -0.23455083 -0.031385828
000070 67 40 ac 3e a7 2f 0f 3e 62 b8 77 be a5 a3 36 3c
       0.33642885 0.13983022 -0.2419143 0.011147414
000080 81 22 b2 3d 20 47 f2 3c c6 fd 91 3e 90 3b a9 bd
       0.08697987 0.02957493 0.28513926 -0.08263314
000090 87 d5 c1 3d 38 b2 09 be fc 02 35 3e 01 91 3f 3e
       0.09464555 -0.13446891 0.1767692 0.18707658
0000a0 12 b3 3b 3d 46 75 4f 3e e2 32 82 3d cf 80 7a be
       0.04582507 0.2025958 0.063573614 -0.24463199
0000b0 0a 83 01 be 18 32 83 3e e5 eb 4d be 2a 00 74 be
       -0.12647644 0.25624156 -0.20109518 -0.23828188
0000c0 96 ec f6 bd c9 4b 27 be 7e da 40 3e d0 7e d1 3c
       -0.12056844 -0.16337503 0.18833348 0.025573164
0000d0 14 c6 f4 3c 3a d9 93 3c 5d 8b 9c 3d 07 d6 27 3e
       0.029879607 0.018047918 0.07643769 0.16390239
0000e0 c1 85 96 3d a2 f6 f2 3d 04 88 f9 be ea c8 80 3e
       0.0734973 0.11863448 -0.48736584 0.25153285
0000f0 5a e2 76 bd fa 43 95 3e 0c 14 08 be 62 eb e2 bc
       -0.06027446 0.29153425 -0.13288897 -0.02770013
000100 18 17 82 be c6 c9 5e 3d 76 e0 62 be 50 d6 75 3d
       -0.25408244 0.054391645 -0.22155938 0.060018837
000110 a3 27 a0 bd a6 46 ae bd ce 35 42 3e 47 8f 6e be
       -0.0782006 -0.08509569 0.18965837 -0.23296843
000120 9c 4f e4 bd c5 f3 cc bd f1 98 01 be be 5d cb 3d
       -0.11147997 -0.10007433 -0.12655999 0.09929989
000130 24 63 06 be 16 a4 8a 3e 22 14 01 3e 42 8f 97 be
       -0.13123757 0.27078313 0.12605336 -0.29601485
000140 f0 67 9e bd 74 8c 21 3e 03 bb 11 be f2 0e f0 bd
       -0.07734668 0.15776235 -0.14231496 -0.117216006
000150 e2 1a 40 be d5 4a 91 3d cb fc 42 3e 95 9c 98 3e
       -0.18760255 0.07094351 0.19041745 0.29806963
000160 96 7b b8 3e b1 c3 55 3e 6c b3 d9 bd 69 44 4b 3e
       0.3603179 0.20875432 -0.10629925 0.19850315
000170 bb b7 02 be ad 10 d5 bc 3d 1f 71 bc 04 ae f8 bc
       -0.127654 -0.026008928 -0.01471692 -0.030356415
000180 14 19 1b 3d cc cb 13 be a0 d0 11 be 87 eb 65 be
       0.037865713 -0.14433211 -0.1423974 -0.22453128
000190 05 38 e1 be d3 36 d5 3d c2 eb c8 bd e3 f6 5d 3e
       -0.43988052 0.104108475 -0.09810592 0.21676211
0001a0 d1 c1 86 3d 3d c9 00 3e 57 5d 86 3e ca 48 82 be
       0.06579936 0.12576766 0.26243088 -0.2544616
0001b0 ba 78 ab 3e c7 c7 74 3e 76 ad e0 3e da 0d aa 3d
       0.33490545 0.23904334 0.4388234 0.08303423
0001c0 73 fd fe 3d 7c f1 4c be 16 3c 5e be c4 64 17 be
       0.12450685 -0.20013994 -0.21702608 -0.14784533
0001d0 46 2f 16 3e b5 4f 96 3e d2 97 bf 3d ae be e2 bc
       0.14666471 0.29357687 0.09355129 -0.027678814
0001e0 fb 12 35 bd b8 ba 03 be 22 30 40 3d 8e be 25 bc
       -0.044207554 -0.12864196 0.046920903 -0.010116233
0001f0 e1 36 78 be 3c a8 4e 3e 1f 60 63 3e 06 14 1a be
       -0.24239685 0.20181364 0.22204636 -0.15046701
000200 e6 27 a5 be 5c a3 b2 bd 18 f5 35 be a1 ca 93 3e
       -0.32257003 -0.087225646 -0.17769277 0.2886553
000210 d6 e4 4a bd a4 96 4f 3e f9 16 1a be 51 ff 97 bd
       -0.04953464 0.20272309 -0.15047826 -0.074217446
000220 ee 40 b4 3e 6d 0a b3 3d 56 45 49 3e 9e db 47 3e
       0.35205787 0.08742223 0.19655356 0.19517371
000230 8f 2d 96 3d 75 c7 6f 3e 63 28 db bd b3 d1 83 3d
       0.07332908 0.2341593 -0.107010625 0.06436481
000240 55 99 84 bd 97 14 90 3e d8 ae f6 bc 8b 1f 61 3d
       -0.06474558 0.2814071 -0.030112669 0.054961722
000250 f4 21 63 bd d9 5c 3d 3d 5b 61 71 be 32 c5 b9 be
       -0.055452302 0.046231125 -0.23572294 -0.3628326
000260 43 ef 3c 3a 82 46 ab bc 80 db 0a 3d 53 82 9e bd
       0.00072072836 -0.020907644 0.033900738 -0.07739701
000270 9d e4 77 be 01 65 1f 3e f8 33 c0 bd 2a a2 c9 3e
       -0.24208303 0.15565874 -0.09384912 0.39381534
000280 b7 63 d8 bd 93 96 2e 3e 90 ce ec bd cd ff 22 be
       -0.10565894 0.17049627 -0.11562836 -0.15917893
000290 e3 b8 19 be ea cd 61 be c9 6f 1c 3e 29 81 6b be
       -0.15011935 -0.22051206 0.15277018 -0.2299849
0002a0 44 a7 24 be 49 aa 30 be 27 19 25 bd 7d aa 57 be
       -0.16079432 -0.17252459 -0.04030719 -0.2106113
0002b0 8a f7 1f 3e 27 b2 9c be 8d 2d b6 3d 44 ce 55 3e
       0.15621772 -0.3060467 0.08895407 0.20879465
0002c0 ca 1c 92 be 75 66 2d be 25 18 ce bb b5 40 ed bd
       -0.2853759 -0.16933616 -0.0062894993 -0.115846075
0002d0 17 1f 69 bc 8e 72 8d bd ac 4e 57 be 11 6e a3 3e
       -0.014228604 -0.06906615 -0.21026105 0.31919912
0002e0 74 87 4f be 11 46 31 be 89 92 80 be a5 41 fa 3d
       -0.20266515 -0.17311884 -0.25111797 0.12219552
0002f0 86 02 1a be e9 fe db bc 78 04 04 3e d1 f4 84 3d
       -0.15040025 -0.02685495 0.1289233 0.064920075
000300 de 29 9e bd a9 c0 dc 3c f5 d0 fe bc fa 82 40 3d
       -0.07722829 0.026947336 -0.031105498 0.04699991
000310 44 49 94 bd 0d 8a fd 3d 2f b2 4a be 7e 0f 88 3d
       -0.07240537 0.12379847 -0.19794534 0.0664358
000320 17 34 34 be b7 51 b7 bd 5b 4e 55 be a1 ea 5f 3c
       -0.17597996 -0.08951133 -0.20830671 0.01366678
000330 a8 e5 cb 3d 1f a1 12 be 2a a5 b5 3d ec 29 0d 3e
       0.09955913 -0.14319275 0.08869393 0.13785523
000340 8f 3d af bc 81 3c 68 be 75 32 d8 be c1 bd fb bd
       -0.021391658 -0.2267933 -0.42225996 -0.12292052
000350 28 15 0d be d5 b3 a8 3e 62 48 0e be f2 d5 75 be
       -0.13777602 0.329497 -0.138948 -0.24007395
000360 fd c9 c2 bc 9a b8 e6 be 35 b0 87 3e 5b 4d 7d 3e
       -0.023777956 -0.45062715 0.26501623 0.2473654
000370 b0 77 70 3b 25 4d 81 be 7d 05 6b 3c 4c 46 4e 3d
       0.0036692433 -0.2525417 0.01434457 0.05036001
000380 a9 e6 ed 3c 46 61 6d 3e 54 96 57 3d 8e 5e ee 3c
       0.029040651 0.23181638 0.0526336 0.029097822
000390 97 d2 84 3c 0e 45 a3 3d 86 6f 30 be 4c 2f ed 3d
       0.016213698 0.079721555 -0.17230043 0.11581287
0003a0 b1 e0 59 3e b4 3a c2 3e 4b b2 e7 3d 5e 6f 70 be
       0.21277119 0.37935412 0.113133036 -0.23479983
0003b0 b7 e4 68 3d d3 5b fc 3d 06 7f 20 3e 7d ff bc 3e
       0.056858744 0.123222016 0.15673456 0.36913672
0003c0 b6 96 39 3e c5 e8 de bd 99 6a 30 bc 2f 27 b7 3c
       0.18123898 -0.10884241 -0.010767602 0.022357551
0003d0 a0 e4 0a 3c b3 96 0a bf 2c 5d a0 3e f4 ed 88 3e
       0.00847736 -0.541362 0.31321084 0.26744044
0003e0 1d 19 20 3d a7 11 c8 bd d3 44 ee 3d 9a cc 06 bd
       0.03908645 -0.09768992 0.11634221 -0.032909967
0003f0 32 2d d9 bc 3a 2f 57 3e 88 a9 c1 bd 97 dc 14 3c
       -0.026510809 0.21014109 -0.09456164 0.009085796

mlp_extractor.policy_net.2.bias f4 [64]
000000 88 ae 11 3e e3 71 68 3d 50 16 d9 3d 47 d8 d4 bb
       0.14226735 0.056749236 0.10599959 -0.006495509
000010 8e 82 3d 3c 58 3e 9b 3d 89 e6 4d 3d b0 f4 2a bb
       0.011566771 0.075802505 0.050268684 -0.0026085787
000020 75 66 94 3c 27 bf 22 3d f3 9c 61 3b 98 fd a7 3d
       0.018115262 0.03973308 0.0034425824 0.08202666
000030 bb 11 70 bd e1 d2 13 bd 3d 9b 44 bc b5 f3 93 3c
       -0.05861066 -0.03608978 -0.011999902 0.018060545
000040 e3 c8 e6 bc 36 ed 7b bc ee c8 81 3d 51 5b 9c bc
       -0.028171962 -0.01537638 0.063371524 -0.019086512
000050 4e 56 d8 bd 92 19 43 3d 43 82 d5 bd 49 c3 8f 3c
       -0.10563336 0.047631808 -0.10425236 0.017549174
000060 79 08 36 3d e0 d8 ad bd f4 8e 45 be ff d7 5b 3d
       0.044441674 -0.08488631 -0.19292814 0.053672787
000070 32 5c 5d bd 15 bc 47 3a 67 09 92 bd f3 13 20 bd
       -0.054043002 0.0007619274 -0.071306996 -0.039081525
000080 b5 59 ea 3c 23 65 06 bd bc 59 b1 3d da a8 2c bd
       0.028607229 -0.032811295 0.086596936 -0.042153217
000090 54 9d 2b 3d bc b4 9b 3c f3 e1 96 bc 35 3d 8f 3c
       0.041898087 0.01900708 -0.018418288 0.01748524
0000a0 62 27 98 bd 75 a7 bc bd c2 46 cd 3a 2a bc c2 3c
       -0.07429387 -0.092116274 0.0015661346 0.023771364
0000b0 d2 c1 e6 bc 66 cb 0f bd 5b 0b 46 3c f6 26 0e 3e
       -0.028168593 -0.035106085 0.012087668 0.1388205
0000c0 6e c6 fa bc ef 38 83 3d 72 38 1d 3d 08 35 63 bd
       -0.030612197 0.064073436 0.03838391 -0.055470496
0000d0 3b 50 42 bd 65 a8 8e bd 49 33 78 bd a1 48 14 3d
       -0.047439795 -0.069657125 -0.060595784 0.036202077
0000e0 3c 22 59 3d ad 5e f3 bd 4b ee 71 3d 7b a1 0f bd
       0.053011164 -0.11883292 0.059065145 -0.03506611
0000f0 2a 24 88 bd ef cd a3 3c ad 52 5e 3d d9 0f 61 bc
       -0.06647523 0.019995658 0.054278065 -0.0137366885

mlp_extractor.value_net.0.weight f4 [64, 10]
000000 34 6a ff 3d 0d a7 f9 3d 5b 07 25 be 0c 0c be 3d
       0.124714285 0.121900655 -0.16116087 0.092796415
000010 00 bd 33 3f 25 a7 08 bf 8b a0 85 3c 7e 75 ec bc
       0.70210266 -0.5338004 0.016311904 -0.028864618
000020 fd 35 bd be d7 34 15 bd d1 31 fe bd dc d8 27 3d
       -0.36955252 -0.036427345 -0.124118455 0.040978298
000030 c0 9d 85 be 54 b4 1a 3e b7 0d ed bf b1 f7 b7 bf
       -0.26096916 0.15107852 -1.851981 -1.4372464
000040 36 82 08 3c b3 da b5 bb 04 ea 56 3f 3b e6 83 3f
       0.008331826 -0.0055497526 0.8395083 1.0304636
000050 15 79 fa be 9d 02 63 bf 5d 4a 05 3b 9e 6a a0 bd
       -0.48920503 -0.8867586 0.0020338513 -0.078328356
000060 d4 60 45 bf bc d0 c9 3d 24 5f 28 3e af 15 bc 3d
       -0.77100873 0.09854266 0.16442543 0.09183823
000070 9b 58 98 3d 85 18 00 bf a8 90 8c 3e cc 21 51 3d
       0.07438775 -0.50037414 0.27454114 0.05105762
000080 b2 60 03 bd 1c 07 a2 be 1f 7f 0e 3e a0 2d 23 bf
       -0.032074638 -0.3164605 0.1391568 -0.63741493
000090 25 f5 93 3b c7 82 55 bc d5 67 77 be 8c 6f f3 3d
       0.0045153075 -0.013031668 -0.24160703 0.1188651
0000a0 c2 29 d8 3d 01 c9 d9 3d f8 02 9c be ee e6 9f bd
       0.1055484 0.106340416 -0.30471015 -0.07807718
0000b0 c2 e4 18 bf de 72 e0 bf de aa f0 3c c3 54 ee ba
       -0.59724057 -1.7535055 0.02937835 -0.001818322
0000c0 9e 05 9f 3e 4f 51 b2 3f 57 81 1a 3e c0 1f f9 3c
       0.31058973 1.3931063 0.15088402 0.030410647
0000d0 9d ab 8b 3e e7 d3 32 bd 58 c8 65 3f 8a 94 f5 3e
       0.27279368 -0.043659117 0.89758825 0.4796489
0000e0 c2 e0 ca 3c 4d 9b bb bb 95 94 b7 be f0 6c 2e be
       0.024765376 -0.0057253004 -0.35855547 -0.17033744
0000f0 44 57 69 bd 52 93 9a bd 8c 5b 71 be 7b 5a 14 bd
       -0.05696799 -0.0754763 -0.23570079 -0.0362191
000100 28 45 f9 be ec d8 02 bf 1c 9b 21 bd f1 4d 24 3d
       -0.48685575 -0.51112247 -0.039454564 0.040113393
000110 5b 84 c4 3c 6f 67 e7 3e 7b 59 99 be 05 74 53 bd
       0.023988893 0.451961 -0.2995108 -0.051624317
000120 1a 51 d0 bd 94 c1 0c be a5 9d 9e bf df 67 29 bf
       -0.10171719 -0.13745719 -1.2391859 -0.6617412
000130 18 3c 39 3c d7 44 7e 3d c2 ad aa 3e 92 04 7a 3d
       0.011305831 0.06207737 0.33335692 0.061039515
000140 c6 c4 94 3e d5 9d dc 3e 2e e7 bf bd 44 bf fd be
       0.29056376 0.43089166 -0.09370266 -0.49559987
000150 db 4d 66 3e 84 ae 89 be 33 76 e6 3d ab 81 b1 3d
       0.22490637 -0.26890957 0.112530135 0.0866731
000160 93 30 76 3e 1d a4 53 3d 49 15 02 be 99 b7 63 3e
       0.24041967 0.051670182 -0.12703432 0.22238006
000170 80 43 eb bd 1c 1e bc bd 2b 5e f6 3e 7b 06 17 3e
       -0.11487484 -0.091854304 0.4811872 0.14748566
000180 7a ae 53 3d 68 2d 3e bd 09 8e 53 be 4f 9b 92 be
       0.051680066 -0.04643002 -0.20659651 -0.28634116
000190 a7 2d 57 3e 41 95 82 3d 00 3e e3 3e 9d 28 42 3f
       0.21013509 0.06376124 0.4438324 0.7584322
0001a0 59 2e 98 3d 80 77 eb 3e 07 65 8c be 38 8b 5d 3d
       0.07430715 0.4598961 -0.27420828 0.054087847
0001b0 0f 29 11 3f 2a 36 23 bf 4d d6 d1 bd 05 3e 9b 3e
       0.56703275 -0.6375452 -0.10245953 0.30320755
0001c0 db c6 84 3e bf 61 df 3e cd fa aa 3d 3e ab 92 3e
       0.25932965 0.43629262 0.08348618 0.28646272
0001d0 45 63 e9 bd 85 e4 c9 3d 48 7d 6d be 1d 13 e8 3d
       -0.11395887 0.0985804 -0.23192322 0.113317706
0001e0 b1 82 46 bd 4d c9 c2 be ca e4 47 bd ae 15 0b bf
       -0.04846448 -0.38044205 -0.048802175 -0.54329956
0001f0 1f 6e b3 bd 3c 58 ce be 20 c8 47 3e 72 7a 7e bd
       -0.08761238 -0.40301692 0.19509935 -0.06212849
000200 e4 89 38 3d d0 4b 0c 3e 70 17 8c be 3d 9d 53 be
       0.045053378 0.13700795 -0.2736163 -0.2066545
000210 c2 fb 81 3c 82 be 4b 3e 82 10 64 be 79 43 23 bd
       0.015867118 0.19896892 -0.22271922 -0.03985927
000220 d6 32 4b bd 15 6c b6 3c f3 56 91 3a 5a 9c 83 bd
       -0.049609028 0.022268334 0.0011088535 -0.06426306
000230 ab 01 9f bd 30 f8 97 3d 7d 59 34 be 6c c9 9a be
       -0.0776399 0.07420385 -0.17612262 -0.30231798
000240 8b 4a 8e 3e e2 7c c7 be 5a 09 ea 3c fd d3 ac bc
       0.27791247 -0.38962466 0.028568912 -0.021097178
000250 df d0 e6 bd 35 90 42 3e 3e e2 80 be 28 12 19 bf
       -0.11270308 0.19000323 -0.2517261 -0.5979333
000260 2d f6 98 bb 38 94 07 bf a8 a2 f8 3e ca c1 92 3e
       -0.0046680183 -0.5296054 0.48561597 0.28663474
000270 c5 b6 de 3d ae b1 82 b9 f0 9b 68 bd 48 8a 4a bd
       0.10874704 -0.00024927914 -0.05678934 -0.04944828
000280 e0 04 7a 3d a7 d8 34 3d 91 73 e8 3d 3e c5 a4 3d
       0.061039805 0.04415193 0.113501675 0.080454335
000290 04 67 0c bf 7c 43 56 be d7 7c 44 3a dc 0f ef b9
       -0.5484469 -0.20924181 0.0007495409 -0.00045597448
0002a0 f0 03 f5 3d c6 68 2c be be 78 b9 3d 99 5f 1e be
       0.11963642 -0.16836843 0.09056233 -0.15466155
0002b0 54 8f d8 bd 2c 40 41 bd 39 ac dc 3e 30 2e f6 bf
       -0.10574213 -0.04718034 0.43100145 -1.9232845
0002c0 ef 94 88 bd db 28 7d bd a9 bd 22 3e df ee 09 40
       -0.06669032 -0.06180654 0.15892662 2.1552045
0002d0 f1 a5 62 bd 49 2b 42 3e 58 b2 e4 be df 1d d8 be
       -0.055334035 0.18961824 -0.44667315 -0.4221029
0002e0 eb 3a e4 be 1e 1c 39 3e 46 07 12 be 92 56 30 bd
       -0.445762 0.18077132 -0.14260587 -0.04305131
0002f0 08 25 26 3e 44 b9 39 be d7 e1 de 3d da a0 e6 3d
       0.16225064 -0.1813708 0.10882919 0.11261149
000300 b4 fb da bd 5b d2 15 3e 77 f7 dd 3f 27 0a 1f 3f
       -0.1069254 0.14631025 1.7341145 0.62124866
000310 50 0d 53 bd 8f 8c 8b 3d 0b 6c 83 bf ea 38 5d be
       -0.051526368 0.06813919 -1.0267347 -0.21603742
000320 f9 56 6b 3d bd 34 f2 bd a4 ff 14 3e fd 52 3d 3e
       0.05745599 -0.11826465 0.14550644 0.18488689
000330 29 7d e5 bd bf 96 05 3d db 5a 95 3c 76 0a 0f 3d
       -0.11205513 0.032614466 0.0182318 0.034922086
000340 b8 e1 ab 3e b9 25 3c 3d 68 2a d1 3e 6b 18 05 3f
       0.33570647 0.045934413 0.40852666 0.51990384
000350 ac d1 6a bd dc ec d4 be b9 cb cd be 02 ad ad 3e
       -0.057328865 -0.4158696 -0.4019449 0.33921057
000360 9d 7e 07 be 6c 53 e4 bc 43 43 42 3f e2 7e 0d bf
       -0.13231893 -0.02787181 0.75883883 -0.5527173
000370 0c 52 65 3e f5 34 70 bd 7b 22 42 3d 70 26 08 be
       0.2239458 -0.058644254 0.047396164 -0.13295913
000380 a6 b4 d6 3f c3 54 33 3f 01 57 16 bd ac cb a2 3b
       1.677388 0.7005121 -0.036704067 0.0049681272
000390 93 ab 38 bf a2 50 bb bd ca a6 48 3d 74 19 8f 3e
       -0.721368 -0.09146239 0.048987187 0.27949107
0003a0 7a 06 04 be 6b 8c e2 3e 65 51 03 3f dc f4 9f be
       -0.12893096 0.44247755 0.51296073 -0.312415
0003b0 34 e4 5c bd de a8 89 3e fd b5 d5 be dd 58 19 3f
       -0.05392857 0.26886648 -0.4174041 0.5990122
0003c0 51 c5 1b 3e b8 4f 94 bd 20 94 01 3f 4c f7 00 be
       0.15211989 -0.07241768 0.50616646 -0.12594336
0003d0 7d 34 b7 bf 08 5f e1 3f b2 52 52 bd 6b 2f b2 3c
       -1.4312893 1.7607126 -0.051348396 0.021751126
0003e0 03 06 05 3f 73 6f f9 bf 91 65 81 3e 96 30 a8 3b
       0.519623 -1.9487137 0.25272802 0.005132745
0003f0 cb 4b 49 be 8c 78 90 be ca b0 2d 3e 49 a2 52 bf
       -0.19657819 -0.2821697 0.16961971 -0.8227888

mlp_extractor.value_net.0.bias f4 [64]
000000 10 e2 9d be 7c d9 8c bd f3 5d 38 bf 05 12 8a be
       -0.30836535 -0.06877419 -0.72018355 -0.26966873
000010 4a 2f 89 be d8 a8 c0 be 77 de ce 3d 05 ee aa be
       -0.2679389 -0.37628818 0.101010256 -0.3338472
000020 6f aa 8b be 59 f2 32 be 0f ac 37 3f ed 94 7c 3f
       -0.27278468 -0.17475261 0.71746916 0.9866474
000030 15 67 25 bf fc 69 82 3e 4f 51 63 be 51 28 22 bf
       -0.64610416 0.25471485 -0.22198986 -0.6334277
000040 c3 41 8b be 8a c7 67 bd 77 06 86 be 22 9c cb be
       -0.2719861 -0.05658678 -0.26176807 -0.39767557
000050 6e d1 6c 3e 90 70 81 3e a9 b9 34 3e 2b 35 0b 3f
       0.23126766 0.2528119 0.17648949 0.54378
000060 d4 53 6d be c7 fb 92 be b8 1e 9d be 11 18 b1 be
       -0.23176509 -0.28707716 -0.306875 -0.34588674
000070 b4 02 52 bd 84 9d f6 3e a1 91 cc be a7 4c 89 3e
       -0.05127211 0.4816705 -0.39954856 0.26816294
000080 1f 21 0e 3c b2 c6 57 3d a5 1a 59 be 84 fe 68 be
       0.008674889 0.052679725 -0.2120157 -0.2275334
000090 42 82 d3 bd 04 94 81 3d 8a c0 8d be 1b 94 19 be
       -0.10327579 0.0632706 -0.27685958 -0.14997904
0000a0 54 92 06 3f 31 4b 59 bd 48 b0 4a 3c 48 14 84 3e
       0.5256703 -0.053050224 0.01237113 0.25796723
0000b0 5e 5e e4 bc 8f f4 b7 3e 06 e1 81 bc 56 42 a6 3e
       -0.027877029 0.3592877 -0.01585437 0.32472485
0000c0 00 05 3a 3e 9f c0 99 3e 84 16 a6 be 61 82 22 be
       0.1816597 0.3002977 -0.32439053 -0.15870048
0000d0 b4 61 63 be f0 34 5b be 62 45 c7 be 9e c5 87 3e
       -0.2220524 -0.21406913 -0.38920122 0.26517957
0000e0 a1 f7 18 bd 2c 26 2e bc 45 c7 85 3e 6d e3 54 be
       -0.037345532 -0.010629218 0.26128593 -0.20789881
0000f0 06 f3 0a 3d d7 45 76 be 16 03 06 bf 48 af 69 be
       0.03392317 -0.2405008 -0.5234846 -0.2282077

mlp_extractor.value_net.2.weight f4 [64, 64]
000000 81 e9 1d 3e f3 21 0f be 4d 8a de bb 80 be 96 3d
       0.15421106 -0.13977794 -0.006791389 0.07360554
000010 79 fa a5 3e 1d e5 f9 3d b1 ad e3 3e 1d fa 29 3e
       0.32417658 0.12201903 0.44468454 0.16599317
000020 a2 da d8 bd 83 28 f9 bd 09 f5 24 be 53 be 1c 3e
       -0.10588576 -0.1216593 -0.16109098 0.15306978
000030 3c 30 7c 3e cf bd be bd f1 74 4e 3d 7e 86 ee 3d
       0.24627775 -0.09313547 0.050404493 0.11646746
000040 82 ad 8c be ef 04 b6 3e 12 cd 2f 3e 37 30 fb bd
       -0.27476126 0.3555064 0.17168072 -0.122650556
000050 e4 4a 06 3e 09 d6 0f be bb 3f bf 3d cb 52 9a be
       0.13114506 -0.14046492 0.093383275 -0.3014129
000060 51 92 b9 be 98 28 5f 3e a0 30 3d bc cd 90 4d 3d
       -0.36244443 0.21792829 -0.011547238 0.05018692
000070 30 fe 48 bc 95 15 d9 3d ca bc 97 bd 9f 0c d7 3e
       -0.012267634 0.105998196 -0.074090555 0.42001817
000080 12 13 de bc 91 0a 0b bd e7 07 41 be 33 89 a1 3d
       -0.027108703 -0.033945624 -0.18850671 0.07887497
000090 3c db 42 bd 39 58 48 3e 40 3d d4 bd 0f 70 5e be
       -0.04757236 0.19564904 -0.10363245 -0.21722434
0000a0 8c 8d 5c be 95 2a d5 bd 05 10 47 3d bf e8 91 3e
       -0.21538371 -0.104085125 0.04859926 0.28497884
0000b0 af 74 e1 3e 4c 95 8e 3d f6 16 c6 be 72 f2 a4 3e
       0.44034335 0.0696207 -0.38689393 0.3221622
0000c0 dc 13 4f be b1 f4 94 be 0d 68 ec be 59 48 bb be
       -0.2022242 -0.29092935 -0.46173134 -0.36578634
0000d0 78 f8 24 be 2d 02 9f bd e4 c7 d8 bd d3 27 b2 bd
       -0.16110408 -0.07764087 -0.10585001 -0.08699002
0000e0 ca f8 a1 3c a7 1a 2d be 31 37 ba 3e 77 85 3a bf
       0.019771952 -0.16904698 0.36370233 -0.728599
0000f0 fd 65 ba 3e c0 12 1f be c8 06 b5 3e 8d f2 75 3e
       0.36405936 -0.15534496 0.35356736 0.24018307
000100 5f ca 42 3e e4 6e cc 3e bd 72 8e be 65 3e 7a 3e
       0.19022511 0.39928353 -0.27821913 0.24437864
000110 58 85 1b bd 1e db 50 3b 23 99 93 3d e6 eb 25 3f
       -0.037968963 0.0031868885 0.07206943 0.6481308
000120 23 a4 34 3f e2 23 68 3e a8 e8 61 bf 30 84 9e 3d
       0.7056295 0.22669938 -0.8824563 0.077400565
000130 e3 eb 07 3e 65 37 e3 3b 3e 86 9f 3e bb 4e 80 3d
       0.13273577 0.006934094 0.31157106 0.06265017
000140 a6 97 a8 3e f0 0a 27 3d 73 00 d9 3e 6f 22 8a 3e
       0.329282 0.040781915 0.42383155 0.26979396
000150 68 50 bb be ca 6f be 3c 2d e4 19 be 7f f0 97 bb
       -0.36584783 0.023246665 -0.15028448 -0.0046368237
000160 4b 7e 8d 3b b4 5a 82 3d d5 7d 85 3e e1 f6 5d 3e
       0.004318034 0.063649565 0.26072565 0.21676208
000170 3e c3 17 3e ab cf 01 be 47 d6 2c 3e d3 bf c9 be
       0.14820573 -0.12676875 0.16878615 -0.39404163
000180 19 35 bf 3e fb 41 8c bd 5d 56 a8 3e 04 ed a2 3e
       0.37345198 -0.06848522 0.3287839 0.31821454
000190 07 1c 6c 3e e1 c1 5e bd 26 f2 cf 3e d0 ea 5d 3e
       0.23057567 -0.054384116 0.40614432 0.21671605
0001a0 41 d6 e4 3d 46 64 f3 3e 50 5f c3 3e ba ee 09 bf
       0.11173678 0.4753744 0.38158655 -0.5387989
0001b0 e9 aa 54 3e 77 91 1c 3d b7 0b 3a bd d0 0e 8e bd
       0.20768322 0.038224664 -0.04542133 -0.06936419
0001c0 a7 ea e2 be ac d2 60 be 8e ec e5 39 2c 65 8b 3d
       -0.4431965 -0.21955365 0.0004385453 0.068064064
0001d0 2b 22 9a 3e 10 f2 b6 3e 5d b5 7f 3d 4a 67 1c be
       0.30104193 0.35731554 0.06242882 -0.15273777
0001e0 72 d1 d3 bd 5c bc 13 3e e6 66 74 be 86 d1 42 3e
       -0.10342683 0.14427322 -0.23867378 0.1902524
0001f0 7b 1d 1e be 5f bf 01 3c 3b de 7b 3e 1a 01 3b 3e
       -0.15440933 0.007919162 0.24596493 0.18262139
000200 52 ff 5c be a8 2a ae 3e ae 92 15 3e bf ce a4 be
       -0.21581772 0.3401692 0.14606735 -0.32188985
000210 d2 37 f6 3c ee 74 6a be 09 e4 4e 3b 3d 53 e5 3e
       0.030055914 -0.22896168 0.0031569025 0.44790068
000220 07 94 b0 bd d1 4c 51 bd d8 85 19 3c d0 65 a8 3e
       -0.08621984 -0.05109865 0.00937029 0.32890177
000230 f3 0c e2 bd 95 19 74 3e c6 e4 73 bd 30 f5 46 be
       -0.11037626 0.23837884 -0.059544347 -0.19429469
000240 24 87 52 3e 19 96 c8 be 0b 52 d2 3c 34 99 00 be
       0.20559365 -0.39177015 0.025673887 -0.12558442
000250 8c 5f 9f 3d 47 de 08 3e ab 03 e5 be b1 8b 46 bd
       0.07781896 0.13366042 -0.4472936 -0.048473064
000260 15 08 67 3f f7 ad 0e bd 72 9c 09 3e 46 46 31 3e
       0.9024671 -0.034833875 0.13438585 0.17311963
000270 40 1f 4d 3e 5d ad aa 3d e0 d4 bf 3e ff e5 0c bf
       0.20031452 0.08333848 0.37467098 -0.55038446
000280 82 44 2d be b0 ea c9 3e 21 a4 35 3f c7 3f 97 3e
       -0.16920665 0.39436865 0.70953566 0.29540846
000290 30 96 16 bf 3d 50 20 3e 72 a6 63 bc e6 cf b4 be
       -0.5882292 0.15655608 -0.013894664 -0.35314864
0002a0 dc 24 d3 3d 00 3a 51 3e a8 36 36 3e da d5 cf 3b
       0.10309765 0.20432281 0.17794287 0.0063426318
0002b0 ae 45 13 3e fd a4 8e be 4f 15 b8 3e 9e a1 95 bc
       0.1438205 -0.2786025 0.35953757 -0.018265542
0002c0 cf 69 da 3d 00 48 90 bd f5 a7 89 3c b3 b1 cb 3e
       0.10664713 -0.07044983 0.016803721 0.3978401
0002d0 ba b1 c2 3e 91 87 6e 3e ac b4 60 3d a4 da af 3e
       0.3802622 0.23293902 0.054859802 0.34346497
0002e0 94 f9 6f be e3 29 f4 bd 29 90 0d bf e5 d1 3f 3e
       -0.2343505 -0.11922052 -0.55298096 0.18732412
0002f0 74 40 03 be d8 d9 8e be 6d 51 1b 3e a6 8e da be
       -0.12817556 -0.27900577 0.1516778 -0.42686957
000300 f7 f0 1c 3f 8b 5d c5 be 7c 34 a5 be 24 7c 8b 3e
       0.61305183 -0.3854793 -0.32266605 0.2724315
000310 e8 36 fa 3e 0f ee 7c 3e a6 80 89 be 18 1d 2e 3e
       0.48870015 0.24700187 -0.26855963 0.17003286
000320 60 61 e0 3e 17 76 04 3f 7c 54 72 be af a4 fb 3d
       0.4382429 0.5174269 -0.2366504 0.1228727
000330 e2 9b e7 3d f9 5b c6 be 64 62 cb 3e 4d 88 dc 3d
       0.11309029 -0.38742045 0.39723504 0.10768185
000340 5d 3e f7 bc 6e 2a 7a 3e 1f 7f ed 3d 9e b1 6e 3f
       -0.030181104 0.24430248 0.11596512 0.9323977
000350 45 4f 25 bf 26 dd 60 3e bd 54 1c 3e 19 d8 83 3b
       -0.6457408 0.21959361 0.152667 0.0040235636
000360 41 15 80 be 16 02 48 3f 31 61 8e bc b6 b2 97 3e
       -0.25016215 0.7812818 -0.017380329 0.29628533
000370 16 5e c1 3e bf 7c 86 3e 00 41 6e bd a2 55 2d 3e
       0.37767094 0.2626705 -0.058167458 0.16927198
000380 6f 7b 1a 3f 26 0a 3e 3f c9 b9 c2 3d 94 25 51 3e
       0.60344595 0.74234235 0.09508092 0.20424491
000390 42 ff b7 3d 0b 30 50 be af a4 09 3e 1d 6e db 3e
       0.089842334 -0.20330827 0.13441728 0.42857447
0003a0 f9 02 e6 3e 3f 6f 00 be cd e0 14 be 76 98 21 bd
       0.44924143 -0.12542437 -0.1453888 -0.03945204
0003b0 31 4f 52 3d 8f d3 59 bd fc 24 ea be 73 66 29 3e
       0.051345054 -0.053180274 -0.45731342 0.16542988
0003c0 5a a9 63 3e 22 12 10 be 32 8d 97 3e 8b 96 36 bc
       0.22232571 -0.14069417 0.2959991 -0.011144291
0003d0 d3 98 1d bf 3d d8 14 3e 27 97 bf 3e 64 da 4b 3c
       -0.61561316 0.14535613 0.37420008 0.012442205
0003e0 46 03 63 bd be 9c b1 3e 72 33 05 bd 8d 7f c3 3d
       -0.055423044 0.34689897 -0.032519765 0.09545813
0003f0 98 97 8c be d2 a6 28 bd 0a 55 cb bd 76 4c 16 bc
       -0.27459407 -0.041174717 -0.09928329 -0.009173503

mlp_extractor.value_net.2.bias f4 [64]
000000 55 fd 96 3d f1 a8 85 be 82 d4 d9 bd 5c a3 55 be
       0.07372538 -0.26105455 -0.10636236 -0.20863098
000010 67 9b 1f be 4c 60 9c 3e 32 a2 f5 bc b9 39 34 3e
       -0.15586625 0.3054222 -0.029984567 0.17600144
000020 9f 1f b3 bc aa 60 73 3e d8 72 56 3e a5 e3 9a be
       -0.021865664 0.23767343 0.20942247 -0.30251804
000030 fb b4 45 3e 31 94 1d 3e 5d 53 1e be 20 59 9e 3d
       0.1930732 0.15388562 -0.15461488 0.07731843
000040 ef ec 69 be b3 fd 42 3e 9a 93 88 3e c4 bf 36 be
       -0.22844289 0.19042091 0.2667511 -0.1784659
000050 19 21 88 be 4f 45 a4 3d 9a f0 43 be 3a cc 05 3e
       -0.26587752 0.08021032 -0.19134751 0.13066188
000060 b1 b0 47 be 5c eb 63 3e 54 9d 9f 3e a7 9a 51 3e
       -0.19500996 0.22257751 0.3117472 0.20469151
000070 99 7b 7c be 08 da 91 3e eb 30 30 be ec e3 9a 3e
       -0.24656524 0.28486657 -0.1720616 0.30252016
000080 67 93 a1 bd 58 a0 16 3e 71 5c a0 be 33 4a 78 3d
       -0.07889443 0.14709604 -0.31320527 0.060617637
000090 ab 0e 88 3e fc 13 8e 3d 35 2e 83 3e 2b 2c 04 be
       0.2657369 0.069374055 0.2562119 -0.12907474
0000a0 4d 9f 4d be 36 66 0e 3e 65 95 7e be 7f 72 4e 3e
       -0.200803 0.13906178 -0.24861677 0.20160864
0000b0 ec a2 8f 3e 1c 0d 67 3e d7 36 08 3e bd 3d 92 be
       0.28053987 0.22563595 0.1330217 -0.28562728
0000c0 84 e5 08 3d 35 bd 41 3e f6 b2 cb be be db 63 be
       0.03342201 0.18919833 -0.39784974 -0.22251794
0000d0 e1 c4 c7 bd f0 ef e9 bd 57 bd b6 be ba 65 19 bd
       -0.097543485 -0.114227176 -0.3569133 -0.03745053
0000e0 ca c5 90 be 64 14 5f 3e 28 86 c3 3d 06 e6 9c 3e
       -0.282759 0.21785122 0.09547073 0.30644244
0000f0 d5 99 a7 3d f1 14 38 3e 5e f0 f5 bd 50 30 f2 3d
       0.08183638 0.17976739 -0.12008737 0.11825621

action_net.weight f4 [2, 64]
000000 2b 1a b7 bc 23 94 14 3c dc 8f ff 3a fb dd 3e 3d
       -0.022351345 0.009068522 0.001949783 0.046598416
000010 9e 51 2d 38 d9 4b 09 bd 53 1c 80 3c d3 8b e0 bb
       4.1322426e-05 -0.0335196 0.015638506 -0.006852606
000020 7f 69 f3 b8 cb 71 82 3b 63 2e 6c 3a 7e eb 89 3b
       -0.00011606793 0.0039808503 0.00090095977 0.004208981
000030 08 62 96 ba 21 e4 4c 3a 8b 9d 93 bd 6a 16 99 3a
       -0.0011473307 0.0007815976 -0.07207783 0.0011679654
000040 a6 7b da bb 62 af 2a 3b 5a 74 fd bc b4 a2 ae 3a
       -0.006667572 0.0026044478 -0.03093927 0.0013323636
000050 9a 80 95 bd 11 3d 96 3d 66 80 85 bd 13 2a d2 3d
       -0.072999194 0.07335866 -0.06518631 0.10261931
000060 ab 44 77 3d 6f 43 89 3d fd f6 03 3e d0 f7 fc 38
       0.06036822 0.06702315 0.12887187 0.00012062455
000070 5d 32 95 3b aa 98 b6 bc 29 3d b3 bb 90 a8 0c 3b
       0.004553123 -0.022289593 -0.0054699373 0.0021462776
000080 66 18 7b 3a 7a 0d 1c ba b6 8f f8 3c d2 e0 e1 bc
       0.0009578526 -0.0005952936 0.030341964 -0.027573023
000090 a7 6e ac bd 82 d6 bb 3b 36 ac 0f 3c 58 d9 8e bc
       -0.08419543 0.0057323584 0.008769086 -0.017437622
0000a0 a4 b9 3b 3c 89 89 9c bb 55 40 7b ba 34 b7 0e bb
       0.011457834 -0.0047771377 -0.00095844764 -0.0021776678
0000b0 2e cf d1 3b a9 0f 86 bd 48 bd 2e 3b 9b f7 af 3d
       0.0064028716 -0.06545956 0.0026663113 0.08592149
0000c0 8e 17 b0 bd 26 ec de bc b1 be 07 3c e0 ab c5 38
       -0.08598243 -0.027212214 0.0082852105 9.425706e-05
0000d0 ca 70 0f 3e 70 31 81 bd 20 2f b5 3a 1e cd a5 b8
       0.1400787 -0.063082576 0.0013823248 -7.906019e-05
0000e0 7c a9 34 3b 54 1c 75 bd bf d4 41 bd 39 3a f6 ba
       0.002756684 -0.05984147 -0.04732203 -0.0018785662
0000f0 25 02 18 bb 4a 5b e8 ba 02 40 0b 3d aa be 84 3b
       -0.0023194638 -0.0017727402 0.03399659 0.0040510492
000100 36 b1 04 bd 7f 38 85 3c 52 72 84 39 58 f7 61 bb
       -0.032395564 0.016262291 0.00025262177 -0.0034479704
000110 9c cf 20 bb 96 6d a4 bb 62 be 2e 3c af 63 bb 3c
       -0.0024537807 -0.0050179465 0.010665508 0.022874681
000120 07 d3 05 ba dc 8e e5 ba 0f df ba bb 1d 58 98 3b
       -0.0005104993 -0.0017513889 -0.00570286 0.004649176
000130 94 a6 9c bb 9b 42 91 bb 45 c5 02 3d 4e 57 d5 3c
       -0.0047806 -0.004432989 0.031926412 0.026042607
000140 2c 1d 69 3a 01 82 ae b9 c7 10 5b bd 05 0c 78 3a
       0.00088925916 -0.00033284727 -0.053482797 0.000946224
000150 29 c6 36 bd 68 1d ba 3c d0 5d 60 bd 1d 52 4b bd
       -0.044622574 0.0227191 -0.054776967 -0.049638856
000160 f3 e2 28 3d ed 12 1d 3d 26 a1 25 bc 9f 9a 24 3b
       0.04123206 0.038348127 -0.010109222 0.0025116575
000170 fa 22 90 3a 31 8b c6 3b 64 16 9f 39 cc 61 8d 3c
       0.0010996752 0.0060590734 0.00030343526 0.017258547
000180 73 47 8d ba 25 b6 0e 3b 97 c8 42 bc f0 e8 f1 3c
       -0.001077874 0.0021776047 -0.011888645 0.029530019
000190 f7 59 b8 bd 1c 4c 45 3b e1 21 0f 3d 6c 2e 26 3d
       -0.090015344 0.003010518 0.03494442 0.040571615
0001a0 34 d4 47 3b 84 60 5c ba 08 0b 9e 3b 7e b9 08 3c
       0.0030491473 -0.0008406716 0.0048230924 0.008345006
0001b0 18 af 66 bb 7f b6 00 3d dc 4c 91 3c 68 a8 0c 3d
       -0.003519958 0.03142404 0.017736845 0.034340292
0001c0 bf fe 87 bd c9 e6 4a bd 6e 4d 9a 3c ff 38 92 3a
       -0.06640386 -0.0495365 0.01883575 0.0011155902
0001d0 cb 2b be 3d b5 5d 47 bd 88 c0 a4 b9 b0 60 d0 3a
       0.092856966 -0.04867335 -0.00031423965 0.0015897956
0001e0 c1 d8 1e ba bb 99 a9 bc 62 24 a0 bd c3 b1 28 3b
       -0.00060595205 -0.020703187 -0.078194395 0.002574072
0001f0 61 16 9a bb 4a 2f ba 3b e7 ab c2 3d ad 3f 21 bc
       -0.004702375 0.005681907 0.09505444 -0.009841842

action_net.bias f4 [2]
000000 ad 0a c7 bd ad 37 16 3d
       -0.09718833 0.03667419

value_net.weight f4 [1, 64]
000000 0e 65 48 bf db 2f 36 3f a7 f8 54 3f 70 82 52 3f
       -0.782792 0.7116677 0.83191913 0.8223028
000010 7f fd 5c bf f8 e1 81 bf 9d 65 bf 3f f9 0a 49 bf
       -0.86324304 -1.0147085 1.4952885 -0.7853237
000020 29 01 a9 bf 76 3c 73 bf 80 f3 4d bf fc ea 26 3f
       -1.3203479 -0.9501413 -0.80449677 0.6520231
000030 b4 a1 48 bf fb 12 7a bf 2f ff 23 3f 44 64 a4 bf
       -0.7837174 -0.9768521 0.64061254 -1.2843099
000040 dd a0 43 3f 76 2e 71 bf 1e d5 2a bf 7c 61 53 3f
       0.7641733 -0.9421152 -0.6673144 0.82570624
000050 d0 d6 2a 3f 42 ee 5e bf 9c b5 61 3f 5c 36 4c bf
       0.6673403 -0.870823 0.8816774 -0.79770446
000060 62 d3 3d 3f b5 1b 40 bf 62 5d 20 bf 42 54 39 bf
       0.7415067 -0.7504228 -0.6264249 -0.7239419
000070 a1 02 2b 3f 21 a8 3b bf 01 ff 35 3f 0e 9b 4d bf
       0.66800886 -0.7330342 0.7109223 -0.8031472
000080 90 2c 80 3f 6f d5 69 bf d0 f6 26 3f f9 32 39 bf
       1.0013599 -0.913413 0.65220356 -0.72343403
000090 22 3c 95 3f 7c a4 99 3f f1 fc 37 bf 57 33 3b 3f
       1.1658976 1.2003322 -0.7187033 0.73125213
0000a0 91 5b 4a 3f 6b 0d 77 bf 0d f2 24 3f 4c be 69 bf
       0.7904597 -0.9650485 0.6443184 -0.91305995
0000b0 0e d1 51 bf d4 fb 28 bf 9b 59 73 bf 8a 7d 41 3f
       -0.8195962 -0.6600926 -0.950586 0.7558218
0000c0 b1 9c 51 bf fd 79 68 bf 47 16 67 3f de db 6e 3f
       -0.8187972 -0.9081114 0.9026837 0.9330424
0000d0 bd 11 8a 3f e6 9d 50 3f c5 fb 5c 3f c5 c8 a7 3f
       1.0786663 0.81490934 0.8632167 1.3108145
0000e0 b3 7e 54 3f f2 af 24 bf 37 97 90 bf 7d ac 22 bf
       0.8300583 -0.6433097 -1.1296147 -0.63544446
0000f0 a5 f9 83 bf d2 df 35 bf ff fc 3e 3f 9e 49 aa bf
       -1.031056 -0.7104465 0.7460479 -1.3303716
